…
INFO:root:Epoch 1:{'acc': 0.5416666666666666, 'lr': 0.0002, 'loss': 100.98926442861557}
INFO:root:mean 178.83227827824444 std 50.05896544303765
INFO:root:==> Preparing data..
INFO:root:==> Building model..
INFO:root:args.savemodel : 
INFO:root:
Epoch: 1
INFO:root:Epoch 1:{'acc': 0.5756578947368421, 'lr': 0.0002, 'loss': 86.81098890304565}
INFO:root:mean 178.83227827824444 std 50.05896544303765
INFO:root:==> Preparing data..
INFO:root:==> Building model..
INFO:root:args.savemodel : 
INFO:root:
Epoch: 1
INFO:root:Epoch 1:{'acc': 0.5866228070175439, 'lr': 0.0002, 'loss': 95.30040299892426}
INFO:root:Epoch 1:{'net': ConvRes(
  (conv1): Sequential(
    (0): Conv3d(1, 4, kernel_size=(3, 3, 3), stride=(1, 1, 1), padding=(1, 1, 1))
    (1): BatchNorm3d(4, eps=1e-05, momentum=0.1, affine=True, track_running_stats=True)
    (2): ReLU()
  )
  (conv2): Sequential(
    (0): Conv3d(4, 4, kernel_size=(3, 3, 3), stride=(1, 1, 1), padding=(1, 1, 1))
    (1): BatchNorm3d(4, eps=1e-05, momentum=0.1, affine=True, track_running_stats=True)
    (2): ReLU()
  )
  (first_cbam): ResCBAMLayer(
    (ch_AvgPool): AvgPool3d(kernel_size=32, stride=32, padding=0)
    (ch_MaxPool): MaxPool3d(kernel_size=32, stride=32, padding=0, dilation=1, ceil_mode=False)
    (ch_Linear1): Linear(in_features=4, out_features=1, bias=False)
    (ch_Linear2): Linear(in_features=1, out_features=4, bias=False)
    (ch_Softmax): Softmax(dim=1)
    (sp_Conv): Conv3d(2, 1, kernel_size=(3, 3, 3), stride=(1, 1, 1), padding=(1, 1, 1), bias=False)
    (sp_Softmax): Softmax(dim=1)
    (sp_sigmoid): Sigmoid()
  )
  (layers): Sequential(
    (0): Sequential(
      (0): Conv3d(4, 4, kernel_size=(3, 3, 3), stride=(2, 2, 2), padding=(1, 1, 1), bias=False)
      (1): BatchNorm3d(4, eps=1e-05, momentum=0.1, affine=True, track_running_stats=True)
      (2): ReLU()
    )
    (1): ResidualBlock(
      (my_conv1): Sequential(
        (0): Conv3d(4, 64, kernel_size=(3, 3, 3), stride=(1, 1, 1), padding=(1, 1, 1))
        (1): BatchNorm3d(64, eps=1e-05, momentum=0.1, affine=True, track_running_stats=True)
        (2): ReLU()
      )
      (my_conv2): Sequential(
        (0): Conv3d(64, 64, kernel_size=(3, 3, 3), stride=(1, 1, 1), padding=(1, 1, 1))
        (1): BatchNorm3d(64, eps=1e-05, momentum=0.1, affine=True, track_running_stats=True)
        (2): ReLU()
      )
      (conv3): Sequential(
        (0): Conv3d(4, 64, kernel_size=(1, 1, 1), stride=(1, 1, 1))
        (1): BatchNorm3d(64, eps=1e-05, momentum=0.1, affine=True, track_running_stats=True)
        (2): ReLU()
      )
    )
    (2): ResidualBlock(
      (my_conv1): Sequential(
        (0): Conv3d(64, 64, kernel_size=(3, 3, 3), stride=(1, 1, 1), padding=(1, 1, 1))
        (1): BatchNorm3d(64, eps=1e-05, momentum=0.1, affine=True, track_running_stats=True)
        (2): ReLU()
      )
      (my_conv2): Sequential(
        (0): Conv3d(64, 64, kernel_size=(3, 3, 3), stride=(1, 1, 1), padding=(1, 1, 1))
        (1): BatchNorm3d(64, eps=1e-05, momentum=0.1, affine=True, track_running_stats=True)
        (2): ReLU()
      )
      (conv3): Sequential(
        (0): Conv3d(64, 64, kernel_size=(1, 1, 1), stride=(1, 1, 1))
        (1): BatchNorm3d(64, eps=1e-05, momentum=0.1, affine=True, track_running_stats=True)
        (2): ReLU()
      )
    )
    (3): ResidualBlock(
      (my_conv1): Sequential(
        (0): Conv3d(64, 64, kernel_size=(3, 3, 3), stride=(1, 1, 1), padding=(1, 1, 1))
        (1): BatchNorm3d(64, eps=1e-05, momentum=0.1, affine=True, track_running_stats=True)
        (2): ReLU()
      )
      (my_conv2): Sequential(
        (0): Conv3d(64, 64, kernel_size=(3, 3, 3), stride=(1, 1, 1), padding=(1, 1, 1))
        (1): BatchNorm3d(64, eps=1e-05, momentum=0.1, affine=True, track_running_stats=True)
        (2): ReLU()
      )
      (conv3): Sequential(
        (0): Conv3d(64, 64, kernel_size=(1, 1, 1), stride=(1, 1, 1))
        (1): BatchNorm3d(64, eps=1e-05, momentum=0.1, affine=True, track_running_stats=True)
        (2): ReLU()
      )
    )
    (4): ResCBAMLayer(
      (ch_AvgPool): AvgPool3d(kernel_size=16, stride=16, padding=0)
      (ch_MaxPool): MaxPool3d(kernel_size=16, stride=16, padding=0, dilation=1, ceil_mode=False)
      (ch_Linear1): Linear(in_features=64, out_features=16, bias=False)
      (ch_Linear2): Linear(in_features=16, out_features=64, bias=False)
      (ch_Softmax): Softmax(dim=1)
      (sp_Conv): Conv3d(2, 1, kernel_size=(3, 3, 3), stride=(1, 1, 1), padding=(1, 1, 1), bias=False)
      (sp_Softmax): Softmax(dim=1)
      (sp_sigmoid): Sigmoid()
    )
    (5): Sequential(
      (0): Conv3d(64, 64, kernel_size=(3, 3, 3), stride=(2, 2, 2), padding=(1, 1, 1), bias=False)
      (1): BatchNorm3d(64, eps=1e-05, momentum=0.1, affine=True, track_running_stats=True)
      (2): ReLU()
    )
    (6): ResidualBlock(
      (my_conv1): Sequential(
        (0): Conv3d(64, 128, kernel_size=(3, 3, 3), stride=(1, 1, 1), padding=(1, 1, 1))
        (1): BatchNorm3d(128, eps=1e-05, momentum=0.1, affine=True, track_running_stats=True)
        (2): ReLU()
      )
      (my_conv2): Sequential(
        (0): Conv3d(128, 128, kernel_size=(3, 3, 3), stride=(1, 1, 1), padding=(1, 1, 1))
        (1): BatchNorm3d(128, eps=1e-05, momentum=0.1, affine=True, track_running_stats=True)
        (2): ReLU()
      )
      (conv3): Sequential(
        (0): Conv3d(64, 128, kernel_size=(1, 1, 1), stride=(1, 1, 1))
        (1): BatchNorm3d(128, eps=1e-05, momentum=0.1, affine=True, track_running_stats=True)
        (2): ReLU()
      )
    )
    (7): ResidualBlock(
      (my_conv1): Sequential(
        (0): Conv3d(128, 128, kernel_size=(3, 3, 3), stride=(1, 1, 1), padding=(1, 1, 1))
        (1): BatchNorm3d(128, eps=1e-05, momentum=0.1, affine=True, track_running_stats=True)
        (2): ReLU()
      )
      (my_conv2): Sequential(
        (0): Conv3d(128, 128, kernel_size=(3, 3, 3), stride=(1, 1, 1), padding=(1, 1, 1))
        (1): BatchNorm3d(128, eps=1e-05, momentum=0.1, affine=True, track_running_stats=True)
        (2): ReLU()
      )
      (conv3): Sequential(
        (0): Conv3d(128, 128, kernel_size=(1, 1, 1), stride=(1, 1, 1))
        (1): BatchNorm3d(128, eps=1e-05, momentum=0.1, affine=True, track_running_stats=True)
        (2): ReLU()
      )
    )
    (8): ResidualBlock(
      (my_conv1): Sequential(
        (0): Conv3d(128, 256, kernel_size=(3, 3, 3), stride=(1, 1, 1), padding=(1, 1, 1))
        (1): BatchNorm3d(256, eps=1e-05, momentum=0.1, affine=True, track_running_stats=True)
        (2): ReLU()
      )
      (my_conv2): Sequential(
        (0): Conv3d(256, 256, kernel_size=(3, 3, 3), stride=(1, 1, 1), padding=(1, 1, 1))
        (1): BatchNorm3d(256, eps=1e-05, momentum=0.1, affine=True, track_running_stats=True)
        (2): ReLU()
      )
      (conv3): Sequential(
        (0): Conv3d(128, 256, kernel_size=(1, 1, 1), stride=(1, 1, 1))
        (1): BatchNorm3d(256, eps=1e-05, momentum=0.1, affine=True, track_running_stats=True)
        (2): ReLU()
      )
    )
    (9): ResCBAMLayer(
      (ch_AvgPool): AvgPool3d(kernel_size=8, stride=8, padding=0)
      (ch_MaxPool): MaxPool3d(kernel_size=8, stride=8, padding=0, dilation=1, ceil_mode=False)
      (ch_Linear1): Linear(in_features=256, out_features=64, bias=False)
      (ch_Linear2): Linear(in_features=64, out_features=256, bias=False)
      (ch_Softmax): Softmax(dim=1)
      (sp_Conv): Conv3d(2, 1, kernel_size=(3, 3, 3), stride=(1, 1, 1), padding=(1, 1, 1), bias=False)
      (sp_Softmax): Softmax(dim=1)
      (sp_sigmoid): Sigmoid()
    )
    (10): Sequential(
      (0): Conv3d(256, 256, kernel_size=(3, 3, 3), stride=(2, 2, 2), padding=(1, 1, 1), bias=False)
      (1): BatchNorm3d(256, eps=1e-05, momentum=0.1, affine=True, track_running_stats=True)
      (2): ReLU()
    )
    (11): ResidualBlock(
      (my_conv1): Sequential(
        (0): Conv3d(256, 256, kernel_size=(3, 3, 3), stride=(1, 1, 1), padding=(1, 1, 1))
        (1): BatchNorm3d(256, eps=1e-05, momentum=0.1, affine=True, track_running_stats=True)
        (2): ReLU()
      )
      (my_conv2): Sequential(
        (0): Conv3d(256, 256, kernel_size=(3, 3, 3), stride=(1, 1, 1), padding=(1, 1, 1))
        (1): BatchNorm3d(256, eps=1e-05, momentum=0.1, affine=True, track_running_stats=True)
        (2): ReLU()
      )
      (conv3): Sequential(
        (0): Conv3d(256, 256, kernel_size=(1, 1, 1), stride=(1, 1, 1))
        (1): BatchNorm3d(256, eps=1e-05, momentum=0.1, affine=True, track_running_stats=True)
        (2): ReLU()
      )
    )
    (12): ResidualBlock(
      (my_conv1): Sequential(
        (0): Conv3d(256, 256, kernel_size=(3, 3, 3), stride=(1, 1, 1), padding=(1, 1, 1))
        (1): BatchNorm3d(256, eps=1e-05, momentum=0.1, affine=True, track_running_stats=True)
        (2): ReLU()
      )
      (my_conv2): Sequential(
        (0): Conv3d(256, 256, kernel_size=(3, 3, 3), stride=(1, 1, 1), padding=(1, 1, 1))
        (1): BatchNorm3d(256, eps=1e-05, momentum=0.1, affine=True, track_running_stats=True)
        (2): ReLU()
      )
      (conv3): Sequential(
        (0): Conv3d(256, 256, kernel_size=(1, 1, 1), stride=(1, 1, 1))
        (1): BatchNorm3d(256, eps=1e-05, momentum=0.1, affine=True, track_running_stats=True)
        (2): ReLU()
      )
    )
    (13): ResidualBlock(
      (my_conv1): Sequential(
        (0): Conv3d(256, 256, kernel_size=(3, 3, 3), stride=(1, 1, 1), padding=(1, 1, 1))
        (1): BatchNorm3d(256, eps=1e-05, momentum=0.1, affine=True, track_running_stats=True)
        (2): ReLU()
      )
      (my_conv2): Sequential(
        (0): Conv3d(256, 256, kernel_size=(3, 3, 3), stride=(1, 1, 1), padding=(1, 1, 1))
        (1): BatchNorm3d(256, eps=1e-05, momentum=0.1, affine=True, track_running_stats=True)
        (2): ReLU()
      )
      (conv3): Sequential(
        (0): Conv3d(256, 256, kernel_size=(1, 1, 1), stride=(1, 1, 1))
        (1): BatchNorm3d(256, eps=1e-05, momentum=0.1, affine=True, track_running_stats=True)
        (2): ReLU()
      )
    )
    (14): ResidualBlock(
      (my_conv1): Sequential(
        (0): Conv3d(256, 512, kernel_size=(3, 3, 3), stride=(1, 1, 1), padding=(1, 1, 1))
        (1): BatchNorm3d(512, eps=1e-05, momentum=0.1, affine=True, track_running_stats=True)
        (2): ReLU()
      )
      (my_conv2): Sequential(
        (0): Conv3d(512, 512, kernel_size=(3, 3, 3), stride=(1, 1, 1), padding=(1, 1, 1))
        (1): BatchNorm3d(512, eps=1e-05, momentum=0.1, affine=True, track_running_stats=True)
        (2): ReLU()
      )
      (conv3): Sequential(
        (0): Conv3d(256, 512, kernel_size=(1, 1, 1), stride=(1, 1, 1))
        (1): BatchNorm3d(512, eps=1e-05, momentum=0.1, affine=True, track_running_stats=True)
        (2): ReLU()
      )
    )
    (15): ResCBAMLayer(
      (ch_AvgPool): AvgPool3d(kernel_size=4, stride=4, padding=0)
      (ch_MaxPool): MaxPool3d(kernel_size=4, stride=4, padding=0, dilation=1, ceil_mode=False)
      (ch_Linear1): Linear(in_features=512, out_features=128, bias=False)
      (ch_Linear2): Linear(in_features=128, out_features=512, bias=False)
      (ch_Softmax): Softmax(dim=1)
      (sp_Conv): Conv3d(2, 1, kernel_size=(3, 3, 3), stride=(1, 1, 1), padding=(1, 1, 1), bias=False)
      (sp_Softmax): Softmax(dim=1)
      (sp_sigmoid): Sigmoid()
    )
  )
  (avg_pooling): AvgPool3d(kernel_size=4, stride=4, padding=0)
  (fc): AngleLinear()
), 'acc': 43.47826086956522, 'tpr': 0.0, 'fpr': 0.0, 'epoch': 1, 'best_acc': 43.47826086956522}
INFO:root:
Epoch: 2
INFO:root:Epoch 2:{'acc': 0.7017543859649122, 'lr': 0.0002, 'loss': 66.55660825967789}
INFO:root:Epoch 2:{'net': ConvRes(
  (conv1): Sequential(
    (0): Conv3d(1, 4, kernel_size=(3, 3, 3), stride=(1, 1, 1), padding=(1, 1, 1))
    (1): BatchNorm3d(4, eps=1e-05, momentum=0.1, affine=True, track_running_stats=True)
    (2): ReLU()
  )
  (conv2): Sequential(
    (0): Conv3d(4, 4, kernel_size=(3, 3, 3), stride=(1, 1, 1), padding=(1, 1, 1))
    (1): BatchNorm3d(4, eps=1e-05, momentum=0.1, affine=True, track_running_stats=True)
    (2): ReLU()
  )
  (first_cbam): ResCBAMLayer(
    (ch_AvgPool): AvgPool3d(kernel_size=32, stride=32, padding=0)
    (ch_MaxPool): MaxPool3d(kernel_size=32, stride=32, padding=0, dilation=1, ceil_mode=False)
    (ch_Linear1): Linear(in_features=4, out_features=1, bias=False)
    (ch_Linear2): Linear(in_features=1, out_features=4, bias=False)
    (ch_Softmax): Softmax(dim=1)
    (sp_Conv): Conv3d(2, 1, kernel_size=(3, 3, 3), stride=(1, 1, 1), padding=(1, 1, 1), bias=False)
    (sp_Softmax): Softmax(dim=1)
    (sp_sigmoid): Sigmoid()
  )
  (layers): Sequential(
    (0): Sequential(
      (0): Conv3d(4, 4, kernel_size=(3, 3, 3), stride=(2, 2, 2), padding=(1, 1, 1), bias=False)
      (1): BatchNorm3d(4, eps=1e-05, momentum=0.1, affine=True, track_running_stats=True)
      (2): ReLU()
    )
    (1): ResidualBlock(
      (my_conv1): Sequential(
        (0): Conv3d(4, 64, kernel_size=(3, 3, 3), stride=(1, 1, 1), padding=(1, 1, 1))
        (1): BatchNorm3d(64, eps=1e-05, momentum=0.1, affine=True, track_running_stats=True)
        (2): ReLU()
      )
      (my_conv2): Sequential(
        (0): Conv3d(64, 64, kernel_size=(3, 3, 3), stride=(1, 1, 1), padding=(1, 1, 1))
        (1): BatchNorm3d(64, eps=1e-05, momentum=0.1, affine=True, track_running_stats=True)
        (2): ReLU()
      )
      (conv3): Sequential(
        (0): Conv3d(4, 64, kernel_size=(1, 1, 1), stride=(1, 1, 1))
        (1): BatchNorm3d(64, eps=1e-05, momentum=0.1, affine=True, track_running_stats=True)
        (2): ReLU()
      )
    )
    (2): ResidualBlock(
      (my_conv1): Sequential(
        (0): Conv3d(64, 64, kernel_size=(3, 3, 3), stride=(1, 1, 1), padding=(1, 1, 1))
        (1): BatchNorm3d(64, eps=1e-05, momentum=0.1, affine=True, track_running_stats=True)
        (2): ReLU()
      )
      (my_conv2): Sequential(
        (0): Conv3d(64, 64, kernel_size=(3, 3, 3), stride=(1, 1, 1), padding=(1, 1, 1))
        (1): BatchNorm3d(64, eps=1e-05, momentum=0.1, affine=True, track_running_stats=True)
        (2): ReLU()
      )
      (conv3): Sequential(
        (0): Conv3d(64, 64, kernel_size=(1, 1, 1), stride=(1, 1, 1))
        (1): BatchNorm3d(64, eps=1e-05, momentum=0.1, affine=True, track_running_stats=True)
        (2): ReLU()
      )
    )
    (3): ResidualBlock(
      (my_conv1): Sequential(
        (0): Conv3d(64, 64, kernel_size=(3, 3, 3), stride=(1, 1, 1), padding=(1, 1, 1))
        (1): BatchNorm3d(64, eps=1e-05, momentum=0.1, affine=True, track_running_stats=True)
        (2): ReLU()
      )
      (my_conv2): Sequential(
        (0): Conv3d(64, 64, kernel_size=(3, 3, 3), stride=(1, 1, 1), padding=(1, 1, 1))
        (1): BatchNorm3d(64, eps=1e-05, momentum=0.1, affine=True, track_running_stats=True)
        (2): ReLU()
      )
      (conv3): Sequential(
        (0): Conv3d(64, 64, kernel_size=(1, 1, 1), stride=(1, 1, 1))
        (1): BatchNorm3d(64, eps=1e-05, momentum=0.1, affine=True, track_running_stats=True)
        (2): ReLU()
      )
    )
    (4): ResCBAMLayer(
      (ch_AvgPool): AvgPool3d(kernel_size=16, stride=16, padding=0)
      (ch_MaxPool): MaxPool3d(kernel_size=16, stride=16, padding=0, dilation=1, ceil_mode=False)
      (ch_Linear1): Linear(in_features=64, out_features=16, bias=False)
      (ch_Linear2): Linear(in_features=16, out_features=64, bias=False)
      (ch_Softmax): Softmax(dim=1)
      (sp_Conv): Conv3d(2, 1, kernel_size=(3, 3, 3), stride=(1, 1, 1), padding=(1, 1, 1), bias=False)
      (sp_Softmax): Softmax(dim=1)
      (sp_sigmoid): Sigmoid()
    )
    (5): Sequential(
      (0): Conv3d(64, 64, kernel_size=(3, 3, 3), stride=(2, 2, 2), padding=(1, 1, 1), bias=False)
      (1): BatchNorm3d(64, eps=1e-05, momentum=0.1, affine=True, track_running_stats=True)
      (2): ReLU()
    )
    (6): ResidualBlock(
      (my_conv1): Sequential(
        (0): Conv3d(64, 128, kernel_size=(3, 3, 3), stride=(1, 1, 1), padding=(1, 1, 1))
        (1): BatchNorm3d(128, eps=1e-05, momentum=0.1, affine=True, track_running_stats=True)
        (2): ReLU()
      )
      (my_conv2): Sequential(
        (0): Conv3d(128, 128, kernel_size=(3, 3, 3), stride=(1, 1, 1), padding=(1, 1, 1))
        (1): BatchNorm3d(128, eps=1e-05, momentum=0.1, affine=True, track_running_stats=True)
        (2): ReLU()
      )
      (conv3): Sequential(
        (0): Conv3d(64, 128, kernel_size=(1, 1, 1), stride=(1, 1, 1))
        (1): BatchNorm3d(128, eps=1e-05, momentum=0.1, affine=True, track_running_stats=True)
        (2): ReLU()
      )
    )
    (7): ResidualBlock(
      (my_conv1): Sequential(
        (0): Conv3d(128, 128, kernel_size=(3, 3, 3), stride=(1, 1, 1), padding=(1, 1, 1))
        (1): BatchNorm3d(128, eps=1e-05, momentum=0.1, affine=True, track_running_stats=True)
        (2): ReLU()
      )
      (my_conv2): Sequential(
        (0): Conv3d(128, 128, kernel_size=(3, 3, 3), stride=(1, 1, 1), padding=(1, 1, 1))
        (1): BatchNorm3d(128, eps=1e-05, momentum=0.1, affine=True, track_running_stats=True)
        (2): ReLU()
      )
      (conv3): Sequential(
        (0): Conv3d(128, 128, kernel_size=(1, 1, 1), stride=(1, 1, 1))
        (1): BatchNorm3d(128, eps=1e-05, momentum=0.1, affine=True, track_running_stats=True)
        (2): ReLU()
      )
    )
    (8): ResidualBlock(
      (my_conv1): Sequential(
        (0): Conv3d(128, 256, kernel_size=(3, 3, 3), stride=(1, 1, 1), padding=(1, 1, 1))
        (1): BatchNorm3d(256, eps=1e-05, momentum=0.1, affine=True, track_running_stats=True)
        (2): ReLU()
      )
      (my_conv2): Sequential(
        (0): Conv3d(256, 256, kernel_size=(3, 3, 3), stride=(1, 1, 1), padding=(1, 1, 1))
        (1): BatchNorm3d(256, eps=1e-05, momentum=0.1, affine=True, track_running_stats=True)
        (2): ReLU()
      )
      (conv3): Sequential(
        (0): Conv3d(128, 256, kernel_size=(1, 1, 1), stride=(1, 1, 1))
        (1): BatchNorm3d(256, eps=1e-05, momentum=0.1, affine=True, track_running_stats=True)
        (2): ReLU()
      )
    )
    (9): ResCBAMLayer(
      (ch_AvgPool): AvgPool3d(kernel_size=8, stride=8, padding=0)
      (ch_MaxPool): MaxPool3d(kernel_size=8, stride=8, padding=0, dilation=1, ceil_mode=False)
      (ch_Linear1): Linear(in_features=256, out_features=64, bias=False)
      (ch_Linear2): Linear(in_features=64, out_features=256, bias=False)
      (ch_Softmax): Softmax(dim=1)
      (sp_Conv): Conv3d(2, 1, kernel_size=(3, 3, 3), stride=(1, 1, 1), padding=(1, 1, 1), bias=False)
      (sp_Softmax): Softmax(dim=1)
      (sp_sigmoid): Sigmoid()
    )
    (10): Sequential(
      (0): Conv3d(256, 256, kernel_size=(3, 3, 3), stride=(2, 2, 2), padding=(1, 1, 1), bias=False)
      (1): BatchNorm3d(256, eps=1e-05, momentum=0.1, affine=True, track_running_stats=True)
      (2): ReLU()
    )
    (11): ResidualBlock(
      (my_conv1): Sequential(
        (0): Conv3d(256, 256, kernel_size=(3, 3, 3), stride=(1, 1, 1), padding=(1, 1, 1))
        (1): BatchNorm3d(256, eps=1e-05, momentum=0.1, affine=True, track_running_stats=True)
        (2): ReLU()
      )
      (my_conv2): Sequential(
        (0): Conv3d(256, 256, kernel_size=(3, 3, 3), stride=(1, 1, 1), padding=(1, 1, 1))
        (1): BatchNorm3d(256, eps=1e-05, momentum=0.1, affine=True, track_running_stats=True)
        (2): ReLU()
      )
      (conv3): Sequential(
        (0): Conv3d(256, 256, kernel_size=(1, 1, 1), stride=(1, 1, 1))
        (1): BatchNorm3d(256, eps=1e-05, momentum=0.1, affine=True, track_running_stats=True)
        (2): ReLU()
      )
    )
    (12): ResidualBlock(
      (my_conv1): Sequential(
        (0): Conv3d(256, 256, kernel_size=(3, 3, 3), stride=(1, 1, 1), padding=(1, 1, 1))
        (1): BatchNorm3d(256, eps=1e-05, momentum=0.1, affine=True, track_running_stats=True)
        (2): ReLU()
      )
      (my_conv2): Sequential(
        (0): Conv3d(256, 256, kernel_size=(3, 3, 3), stride=(1, 1, 1), padding=(1, 1, 1))
        (1): BatchNorm3d(256, eps=1e-05, momentum=0.1, affine=True, track_running_stats=True)
        (2): ReLU()
      )
      (conv3): Sequential(
        (0): Conv3d(256, 256, kernel_size=(1, 1, 1), stride=(1, 1, 1))
        (1): BatchNorm3d(256, eps=1e-05, momentum=0.1, affine=True, track_running_stats=True)
        (2): ReLU()
      )
    )
    (13): ResidualBlock(
      (my_conv1): Sequential(
        (0): Conv3d(256, 256, kernel_size=(3, 3, 3), stride=(1, 1, 1), padding=(1, 1, 1))
        (1): BatchNorm3d(256, eps=1e-05, momentum=0.1, affine=True, track_running_stats=True)
        (2): ReLU()
      )
      (my_conv2): Sequential(
        (0): Conv3d(256, 256, kernel_size=(3, 3, 3), stride=(1, 1, 1), padding=(1, 1, 1))
        (1): BatchNorm3d(256, eps=1e-05, momentum=0.1, affine=True, track_running_stats=True)
        (2): ReLU()
      )
      (conv3): Sequential(
        (0): Conv3d(256, 256, kernel_size=(1, 1, 1), stride=(1, 1, 1))
        (1): BatchNorm3d(256, eps=1e-05, momentum=0.1, affine=True, track_running_stats=True)
        (2): ReLU()
      )
    )
    (14): ResidualBlock(
      (my_conv1): Sequential(
        (0): Conv3d(256, 512, kernel_size=(3, 3, 3), stride=(1, 1, 1), padding=(1, 1, 1))
        (1): BatchNorm3d(512, eps=1e-05, momentum=0.1, affine=True, track_running_stats=True)
        (2): ReLU()
      )
      (my_conv2): Sequential(
        (0): Conv3d(512, 512, kernel_size=(3, 3, 3), stride=(1, 1, 1), padding=(1, 1, 1))
        (1): BatchNorm3d(512, eps=1e-05, momentum=0.1, affine=True, track_running_stats=True)
        (2): ReLU()
      )
      (conv3): Sequential(
        (0): Conv3d(256, 512, kernel_size=(1, 1, 1), stride=(1, 1, 1))
        (1): BatchNorm3d(512, eps=1e-05, momentum=0.1, affine=True, track_running_stats=True)
        (2): ReLU()
      )
    )
    (15): ResCBAMLayer(
      (ch_AvgPool): AvgPool3d(kernel_size=4, stride=4, padding=0)
      (ch_MaxPool): MaxPool3d(kernel_size=4, stride=4, padding=0, dilation=1, ceil_mode=False)
      (ch_Linear1): Linear(in_features=512, out_features=128, bias=False)
      (ch_Linear2): Linear(in_features=128, out_features=512, bias=False)
      (ch_Softmax): Softmax(dim=1)
      (sp_Conv): Conv3d(2, 1, kernel_size=(3, 3, 3), stride=(1, 1, 1), padding=(1, 1, 1), bias=False)
      (sp_Softmax): Softmax(dim=1)
      (sp_sigmoid): Sigmoid()
    )
  )
  (avg_pooling): AvgPool3d(kernel_size=4, stride=4, padding=0)
  (fc): AngleLinear()
), 'acc': 64.1304347826087, 'tpr': 51.92307692307692, 'fpr': 20.0, 'epoch': 2, 'best_acc': 64.1304347826087}
INFO:root:
Epoch: 3
INFO:root:Epoch 3:{'acc': 0.7171052631578947, 'lr': 0.0002, 'loss': 64.86882701516151}
INFO:root:Epoch 3:{'net': ConvRes(
  (conv1): Sequential(
    (0): Conv3d(1, 4, kernel_size=(3, 3, 3), stride=(1, 1, 1), padding=(1, 1, 1))
    (1): BatchNorm3d(4, eps=1e-05, momentum=0.1, affine=True, track_running_stats=True)
    (2): ReLU()
  )
  (conv2): Sequential(
    (0): Conv3d(4, 4, kernel_size=(3, 3, 3), stride=(1, 1, 1), padding=(1, 1, 1))
    (1): BatchNorm3d(4, eps=1e-05, momentum=0.1, affine=True, track_running_stats=True)
    (2): ReLU()
  )
  (first_cbam): ResCBAMLayer(
    (ch_AvgPool): AvgPool3d(kernel_size=32, stride=32, padding=0)
    (ch_MaxPool): MaxPool3d(kernel_size=32, stride=32, padding=0, dilation=1, ceil_mode=False)
    (ch_Linear1): Linear(in_features=4, out_features=1, bias=False)
    (ch_Linear2): Linear(in_features=1, out_features=4, bias=False)
    (ch_Softmax): Softmax(dim=1)
    (sp_Conv): Conv3d(2, 1, kernel_size=(3, 3, 3), stride=(1, 1, 1), padding=(1, 1, 1), bias=False)
    (sp_Softmax): Softmax(dim=1)
    (sp_sigmoid): Sigmoid()
  )
  (layers): Sequential(
    (0): Sequential(
      (0): Conv3d(4, 4, kernel_size=(3, 3, 3), stride=(2, 2, 2), padding=(1, 1, 1), bias=False)
      (1): BatchNorm3d(4, eps=1e-05, momentum=0.1, affine=True, track_running_stats=True)
      (2): ReLU()
    )
    (1): ResidualBlock(
      (my_conv1): Sequential(
        (0): Conv3d(4, 64, kernel_size=(3, 3, 3), stride=(1, 1, 1), padding=(1, 1, 1))
        (1): BatchNorm3d(64, eps=1e-05, momentum=0.1, affine=True, track_running_stats=True)
        (2): ReLU()
      )
      (my_conv2): Sequential(
        (0): Conv3d(64, 64, kernel_size=(3, 3, 3), stride=(1, 1, 1), padding=(1, 1, 1))
        (1): BatchNorm3d(64, eps=1e-05, momentum=0.1, affine=True, track_running_stats=True)
        (2): ReLU()
      )
      (conv3): Sequential(
        (0): Conv3d(4, 64, kernel_size=(1, 1, 1), stride=(1, 1, 1))
        (1): BatchNorm3d(64, eps=1e-05, momentum=0.1, affine=True, track_running_stats=True)
        (2): ReLU()
      )
    )
    (2): ResidualBlock(
      (my_conv1): Sequential(
        (0): Conv3d(64, 64, kernel_size=(3, 3, 3), stride=(1, 1, 1), padding=(1, 1, 1))
        (1): BatchNorm3d(64, eps=1e-05, momentum=0.1, affine=True, track_running_stats=True)
        (2): ReLU()
      )
      (my_conv2): Sequential(
        (0): Conv3d(64, 64, kernel_size=(3, 3, 3), stride=(1, 1, 1), padding=(1, 1, 1))
        (1): BatchNorm3d(64, eps=1e-05, momentum=0.1, affine=True, track_running_stats=True)
        (2): ReLU()
      )
      (conv3): Sequential(
        (0): Conv3d(64, 64, kernel_size=(1, 1, 1), stride=(1, 1, 1))
        (1): BatchNorm3d(64, eps=1e-05, momentum=0.1, affine=True, track_running_stats=True)
        (2): ReLU()
      )
    )
    (3): ResidualBlock(
      (my_conv1): Sequential(
        (0): Conv3d(64, 64, kernel_size=(3, 3, 3), stride=(1, 1, 1), padding=(1, 1, 1))
        (1): BatchNorm3d(64, eps=1e-05, momentum=0.1, affine=True, track_running_stats=True)
        (2): ReLU()
      )
      (my_conv2): Sequential(
        (0): Conv3d(64, 64, kernel_size=(3, 3, 3), stride=(1, 1, 1), padding=(1, 1, 1))
        (1): BatchNorm3d(64, eps=1e-05, momentum=0.1, affine=True, track_running_stats=True)
        (2): ReLU()
      )
      (conv3): Sequential(
        (0): Conv3d(64, 64, kernel_size=(1, 1, 1), stride=(1, 1, 1))
        (1): BatchNorm3d(64, eps=1e-05, momentum=0.1, affine=True, track_running_stats=True)
        (2): ReLU()
      )
    )
    (4): ResCBAMLayer(
      (ch_AvgPool): AvgPool3d(kernel_size=16, stride=16, padding=0)
      (ch_MaxPool): MaxPool3d(kernel_size=16, stride=16, padding=0, dilation=1, ceil_mode=False)
      (ch_Linear1): Linear(in_features=64, out_features=16, bias=False)
      (ch_Linear2): Linear(in_features=16, out_features=64, bias=False)
      (ch_Softmax): Softmax(dim=1)
      (sp_Conv): Conv3d(2, 1, kernel_size=(3, 3, 3), stride=(1, 1, 1), padding=(1, 1, 1), bias=False)
      (sp_Softmax): Softmax(dim=1)
      (sp_sigmoid): Sigmoid()
    )
    (5): Sequential(
      (0): Conv3d(64, 64, kernel_size=(3, 3, 3), stride=(2, 2, 2), padding=(1, 1, 1), bias=False)
      (1): BatchNorm3d(64, eps=1e-05, momentum=0.1, affine=True, track_running_stats=True)
      (2): ReLU()
    )
    (6): ResidualBlock(
      (my_conv1): Sequential(
        (0): Conv3d(64, 128, kernel_size=(3, 3, 3), stride=(1, 1, 1), padding=(1, 1, 1))
        (1): BatchNorm3d(128, eps=1e-05, momentum=0.1, affine=True, track_running_stats=True)
        (2): ReLU()
      )
      (my_conv2): Sequential(
        (0): Conv3d(128, 128, kernel_size=(3, 3, 3), stride=(1, 1, 1), padding=(1, 1, 1))
        (1): BatchNorm3d(128, eps=1e-05, momentum=0.1, affine=True, track_running_stats=True)
        (2): ReLU()
      )
      (conv3): Sequential(
        (0): Conv3d(64, 128, kernel_size=(1, 1, 1), stride=(1, 1, 1))
        (1): BatchNorm3d(128, eps=1e-05, momentum=0.1, affine=True, track_running_stats=True)
        (2): ReLU()
      )
    )
    (7): ResidualBlock(
      (my_conv1): Sequential(
        (0): Conv3d(128, 128, kernel_size=(3, 3, 3), stride=(1, 1, 1), padding=(1, 1, 1))
        (1): BatchNorm3d(128, eps=1e-05, momentum=0.1, affine=True, track_running_stats=True)
        (2): ReLU()
      )
      (my_conv2): Sequential(
        (0): Conv3d(128, 128, kernel_size=(3, 3, 3), stride=(1, 1, 1), padding=(1, 1, 1))
        (1): BatchNorm3d(128, eps=1e-05, momentum=0.1, affine=True, track_running_stats=True)
        (2): ReLU()
      )
      (conv3): Sequential(
        (0): Conv3d(128, 128, kernel_size=(1, 1, 1), stride=(1, 1, 1))
        (1): BatchNorm3d(128, eps=1e-05, momentum=0.1, affine=True, track_running_stats=True)
        (2): ReLU()
      )
    )
    (8): ResidualBlock(
      (my_conv1): Sequential(
        (0): Conv3d(128, 256, kernel_size=(3, 3, 3), stride=(1, 1, 1), padding=(1, 1, 1))
        (1): BatchNorm3d(256, eps=1e-05, momentum=0.1, affine=True, track_running_stats=True)
        (2): ReLU()
      )
      (my_conv2): Sequential(
        (0): Conv3d(256, 256, kernel_size=(3, 3, 3), stride=(1, 1, 1), padding=(1, 1, 1))
        (1): BatchNorm3d(256, eps=1e-05, momentum=0.1, affine=True, track_running_stats=True)
        (2): ReLU()
      )
      (conv3): Sequential(
        (0): Conv3d(128, 256, kernel_size=(1, 1, 1), stride=(1, 1, 1))
        (1): BatchNorm3d(256, eps=1e-05, momentum=0.1, affine=True, track_running_stats=True)
        (2): ReLU()
      )
    )
    (9): ResCBAMLayer(
      (ch_AvgPool): AvgPool3d(kernel_size=8, stride=8, padding=0)
      (ch_MaxPool): MaxPool3d(kernel_size=8, stride=8, padding=0, dilation=1, ceil_mode=False)
      (ch_Linear1): Linear(in_features=256, out_features=64, bias=False)
      (ch_Linear2): Linear(in_features=64, out_features=256, bias=False)
      (ch_Softmax): Softmax(dim=1)
      (sp_Conv): Conv3d(2, 1, kernel_size=(3, 3, 3), stride=(1, 1, 1), padding=(1, 1, 1), bias=False)
      (sp_Softmax): Softmax(dim=1)
      (sp_sigmoid): Sigmoid()
    )
    (10): Sequential(
      (0): Conv3d(256, 256, kernel_size=(3, 3, 3), stride=(2, 2, 2), padding=(1, 1, 1), bias=False)
      (1): BatchNorm3d(256, eps=1e-05, momentum=0.1, affine=True, track_running_stats=True)
      (2): ReLU()
    )
    (11): ResidualBlock(
      (my_conv1): Sequential(
        (0): Conv3d(256, 256, kernel_size=(3, 3, 3), stride=(1, 1, 1), padding=(1, 1, 1))
        (1): BatchNorm3d(256, eps=1e-05, momentum=0.1, affine=True, track_running_stats=True)
        (2): ReLU()
      )
      (my_conv2): Sequential(
        (0): Conv3d(256, 256, kernel_size=(3, 3, 3), stride=(1, 1, 1), padding=(1, 1, 1))
        (1): BatchNorm3d(256, eps=1e-05, momentum=0.1, affine=True, track_running_stats=True)
        (2): ReLU()
      )
      (conv3): Sequential(
        (0): Conv3d(256, 256, kernel_size=(1, 1, 1), stride=(1, 1, 1))
        (1): BatchNorm3d(256, eps=1e-05, momentum=0.1, affine=True, track_running_stats=True)
        (2): ReLU()
      )
    )
    (12): ResidualBlock(
      (my_conv1): Sequential(
        (0): Conv3d(256, 256, kernel_size=(3, 3, 3), stride=(1, 1, 1), padding=(1, 1, 1))
        (1): BatchNorm3d(256, eps=1e-05, momentum=0.1, affine=True, track_running_stats=True)
        (2): ReLU()
      )
      (my_conv2): Sequential(
        (0): Conv3d(256, 256, kernel_size=(3, 3, 3), stride=(1, 1, 1), padding=(1, 1, 1))
        (1): BatchNorm3d(256, eps=1e-05, momentum=0.1, affine=True, track_running_stats=True)
        (2): ReLU()
      )
      (conv3): Sequential(
        (0): Conv3d(256, 256, kernel_size=(1, 1, 1), stride=(1, 1, 1))
        (1): BatchNorm3d(256, eps=1e-05, momentum=0.1, affine=True, track_running_stats=True)
        (2): ReLU()
      )
    )
    (13): ResidualBlock(
      (my_conv1): Sequential(
        (0): Conv3d(256, 256, kernel_size=(3, 3, 3), stride=(1, 1, 1), padding=(1, 1, 1))
        (1): BatchNorm3d(256, eps=1e-05, momentum=0.1, affine=True, track_running_stats=True)
        (2): ReLU()
      )
      (my_conv2): Sequential(
        (0): Conv3d(256, 256, kernel_size=(3, 3, 3), stride=(1, 1, 1), padding=(1, 1, 1))
        (1): BatchNorm3d(256, eps=1e-05, momentum=0.1, affine=True, track_running_stats=True)
        (2): ReLU()
      )
      (conv3): Sequential(
        (0): Conv3d(256, 256, kernel_size=(1, 1, 1), stride=(1, 1, 1))
        (1): BatchNorm3d(256, eps=1e-05, momentum=0.1, affine=True, track_running_stats=True)
        (2): ReLU()
      )
    )
    (14): ResidualBlock(
      (my_conv1): Sequential(
        (0): Conv3d(256, 512, kernel_size=(3, 3, 3), stride=(1, 1, 1), padding=(1, 1, 1))
        (1): BatchNorm3d(512, eps=1e-05, momentum=0.1, affine=True, track_running_stats=True)
        (2): ReLU()
      )
      (my_conv2): Sequential(
        (0): Conv3d(512, 512, kernel_size=(3, 3, 3), stride=(1, 1, 1), padding=(1, 1, 1))
        (1): BatchNorm3d(512, eps=1e-05, momentum=0.1, affine=True, track_running_stats=True)
        (2): ReLU()
      )
      (conv3): Sequential(
        (0): Conv3d(256, 512, kernel_size=(1, 1, 1), stride=(1, 1, 1))
        (1): BatchNorm3d(512, eps=1e-05, momentum=0.1, affine=True, track_running_stats=True)
        (2): ReLU()
      )
    )
    (15): ResCBAMLayer(
      (ch_AvgPool): AvgPool3d(kernel_size=4, stride=4, padding=0)
      (ch_MaxPool): MaxPool3d(kernel_size=4, stride=4, padding=0, dilation=1, ceil_mode=False)
      (ch_Linear1): Linear(in_features=512, out_features=128, bias=False)
      (ch_Linear2): Linear(in_features=128, out_features=512, bias=False)
      (ch_Softmax): Softmax(dim=1)
      (sp_Conv): Conv3d(2, 1, kernel_size=(3, 3, 3), stride=(1, 1, 1), padding=(1, 1, 1), bias=False)
      (sp_Softmax): Softmax(dim=1)
      (sp_sigmoid): Sigmoid()
    )
  )
  (avg_pooling): AvgPool3d(kernel_size=4, stride=4, padding=0)
  (fc): AngleLinear()
), 'acc': 56.52173913043478, 'tpr': 100.0, 'fpr': 100.0, 'epoch': 3, 'best_acc': 64.1304347826087}
INFO:root:
Epoch: 4
INFO:root:Epoch 4:{'acc': 0.7258771929824561, 'lr': 0.0002, 'loss': 63.73355592787266}
INFO:root:Epoch 4:{'net': ConvRes(
  (conv1): Sequential(
    (0): Conv3d(1, 4, kernel_size=(3, 3, 3), stride=(1, 1, 1), padding=(1, 1, 1))
    (1): BatchNorm3d(4, eps=1e-05, momentum=0.1, affine=True, track_running_stats=True)
    (2): ReLU()
  )
  (conv2): Sequential(
    (0): Conv3d(4, 4, kernel_size=(3, 3, 3), stride=(1, 1, 1), padding=(1, 1, 1))
    (1): BatchNorm3d(4, eps=1e-05, momentum=0.1, affine=True, track_running_stats=True)
    (2): ReLU()
  )
  (first_cbam): ResCBAMLayer(
    (ch_AvgPool): AvgPool3d(kernel_size=32, stride=32, padding=0)
    (ch_MaxPool): MaxPool3d(kernel_size=32, stride=32, padding=0, dilation=1, ceil_mode=False)
    (ch_Linear1): Linear(in_features=4, out_features=1, bias=False)
    (ch_Linear2): Linear(in_features=1, out_features=4, bias=False)
    (ch_Softmax): Softmax(dim=1)
    (sp_Conv): Conv3d(2, 1, kernel_size=(3, 3, 3), stride=(1, 1, 1), padding=(1, 1, 1), bias=False)
    (sp_Softmax): Softmax(dim=1)
    (sp_sigmoid): Sigmoid()
  )
  (layers): Sequential(
    (0): Sequential(
      (0): Conv3d(4, 4, kernel_size=(3, 3, 3), stride=(2, 2, 2), padding=(1, 1, 1), bias=False)
      (1): BatchNorm3d(4, eps=1e-05, momentum=0.1, affine=True, track_running_stats=True)
      (2): ReLU()
    )
    (1): ResidualBlock(
      (my_conv1): Sequential(
        (0): Conv3d(4, 64, kernel_size=(3, 3, 3), stride=(1, 1, 1), padding=(1, 1, 1))
        (1): BatchNorm3d(64, eps=1e-05, momentum=0.1, affine=True, track_running_stats=True)
        (2): ReLU()
      )
      (my_conv2): Sequential(
        (0): Conv3d(64, 64, kernel_size=(3, 3, 3), stride=(1, 1, 1), padding=(1, 1, 1))
        (1): BatchNorm3d(64, eps=1e-05, momentum=0.1, affine=True, track_running_stats=True)
        (2): ReLU()
      )
      (conv3): Sequential(
        (0): Conv3d(4, 64, kernel_size=(1, 1, 1), stride=(1, 1, 1))
        (1): BatchNorm3d(64, eps=1e-05, momentum=0.1, affine=True, track_running_stats=True)
        (2): ReLU()
      )
    )
    (2): ResidualBlock(
      (my_conv1): Sequential(
        (0): Conv3d(64, 64, kernel_size=(3, 3, 3), stride=(1, 1, 1), padding=(1, 1, 1))
        (1): BatchNorm3d(64, eps=1e-05, momentum=0.1, affine=True, track_running_stats=True)
        (2): ReLU()
      )
      (my_conv2): Sequential(
        (0): Conv3d(64, 64, kernel_size=(3, 3, 3), stride=(1, 1, 1), padding=(1, 1, 1))
        (1): BatchNorm3d(64, eps=1e-05, momentum=0.1, affine=True, track_running_stats=True)
        (2): ReLU()
      )
      (conv3): Sequential(
        (0): Conv3d(64, 64, kernel_size=(1, 1, 1), stride=(1, 1, 1))
        (1): BatchNorm3d(64, eps=1e-05, momentum=0.1, affine=True, track_running_stats=True)
        (2): ReLU()
      )
    )
    (3): ResidualBlock(
      (my_conv1): Sequential(
        (0): Conv3d(64, 64, kernel_size=(3, 3, 3), stride=(1, 1, 1), padding=(1, 1, 1))
        (1): BatchNorm3d(64, eps=1e-05, momentum=0.1, affine=True, track_running_stats=True)
        (2): ReLU()
      )
      (my_conv2): Sequential(
        (0): Conv3d(64, 64, kernel_size=(3, 3, 3), stride=(1, 1, 1), padding=(1, 1, 1))
        (1): BatchNorm3d(64, eps=1e-05, momentum=0.1, affine=True, track_running_stats=True)
        (2): ReLU()
      )
      (conv3): Sequential(
        (0): Conv3d(64, 64, kernel_size=(1, 1, 1), stride=(1, 1, 1))
        (1): BatchNorm3d(64, eps=1e-05, momentum=0.1, affine=True, track_running_stats=True)
        (2): ReLU()
      )
    )
    (4): ResCBAMLayer(
      (ch_AvgPool): AvgPool3d(kernel_size=16, stride=16, padding=0)
      (ch_MaxPool): MaxPool3d(kernel_size=16, stride=16, padding=0, dilation=1, ceil_mode=False)
      (ch_Linear1): Linear(in_features=64, out_features=16, bias=False)
      (ch_Linear2): Linear(in_features=16, out_features=64, bias=False)
      (ch_Softmax): Softmax(dim=1)
      (sp_Conv): Conv3d(2, 1, kernel_size=(3, 3, 3), stride=(1, 1, 1), padding=(1, 1, 1), bias=False)
      (sp_Softmax): Softmax(dim=1)
      (sp_sigmoid): Sigmoid()
    )
    (5): Sequential(
      (0): Conv3d(64, 64, kernel_size=(3, 3, 3), stride=(2, 2, 2), padding=(1, 1, 1), bias=False)
      (1): BatchNorm3d(64, eps=1e-05, momentum=0.1, affine=True, track_running_stats=True)
      (2): ReLU()
    )
    (6): ResidualBlock(
      (my_conv1): Sequential(
        (0): Conv3d(64, 128, kernel_size=(3, 3, 3), stride=(1, 1, 1), padding=(1, 1, 1))
        (1): BatchNorm3d(128, eps=1e-05, momentum=0.1, affine=True, track_running_stats=True)
        (2): ReLU()
      )
      (my_conv2): Sequential(
        (0): Conv3d(128, 128, kernel_size=(3, 3, 3), stride=(1, 1, 1), padding=(1, 1, 1))
        (1): BatchNorm3d(128, eps=1e-05, momentum=0.1, affine=True, track_running_stats=True)
        (2): ReLU()
      )
      (conv3): Sequential(
        (0): Conv3d(64, 128, kernel_size=(1, 1, 1), stride=(1, 1, 1))
        (1): BatchNorm3d(128, eps=1e-05, momentum=0.1, affine=True, track_running_stats=True)
        (2): ReLU()
      )
    )
    (7): ResidualBlock(
      (my_conv1): Sequential(
        (0): Conv3d(128, 128, kernel_size=(3, 3, 3), stride=(1, 1, 1), padding=(1, 1, 1))
        (1): BatchNorm3d(128, eps=1e-05, momentum=0.1, affine=True, track_running_stats=True)
        (2): ReLU()
      )
      (my_conv2): Sequential(
        (0): Conv3d(128, 128, kernel_size=(3, 3, 3), stride=(1, 1, 1), padding=(1, 1, 1))
        (1): BatchNorm3d(128, eps=1e-05, momentum=0.1, affine=True, track_running_stats=True)
        (2): ReLU()
      )
      (conv3): Sequential(
        (0): Conv3d(128, 128, kernel_size=(1, 1, 1), stride=(1, 1, 1))
        (1): BatchNorm3d(128, eps=1e-05, momentum=0.1, affine=True, track_running_stats=True)
        (2): ReLU()
      )
    )
    (8): ResidualBlock(
      (my_conv1): Sequential(
        (0): Conv3d(128, 256, kernel_size=(3, 3, 3), stride=(1, 1, 1), padding=(1, 1, 1))
        (1): BatchNorm3d(256, eps=1e-05, momentum=0.1, affine=True, track_running_stats=True)
        (2): ReLU()
      )
      (my_conv2): Sequential(
        (0): Conv3d(256, 256, kernel_size=(3, 3, 3), stride=(1, 1, 1), padding=(1, 1, 1))
        (1): BatchNorm3d(256, eps=1e-05, momentum=0.1, affine=True, track_running_stats=True)
        (2): ReLU()
      )
      (conv3): Sequential(
        (0): Conv3d(128, 256, kernel_size=(1, 1, 1), stride=(1, 1, 1))
        (1): BatchNorm3d(256, eps=1e-05, momentum=0.1, affine=True, track_running_stats=True)
        (2): ReLU()
      )
    )
    (9): ResCBAMLayer(
      (ch_AvgPool): AvgPool3d(kernel_size=8, stride=8, padding=0)
      (ch_MaxPool): MaxPool3d(kernel_size=8, stride=8, padding=0, dilation=1, ceil_mode=False)
      (ch_Linear1): Linear(in_features=256, out_features=64, bias=False)
      (ch_Linear2): Linear(in_features=64, out_features=256, bias=False)
      (ch_Softmax): Softmax(dim=1)
      (sp_Conv): Conv3d(2, 1, kernel_size=(3, 3, 3), stride=(1, 1, 1), padding=(1, 1, 1), bias=False)
      (sp_Softmax): Softmax(dim=1)
      (sp_sigmoid): Sigmoid()
    )
    (10): Sequential(
      (0): Conv3d(256, 256, kernel_size=(3, 3, 3), stride=(2, 2, 2), padding=(1, 1, 1), bias=False)
      (1): BatchNorm3d(256, eps=1e-05, momentum=0.1, affine=True, track_running_stats=True)
      (2): ReLU()
    )
    (11): ResidualBlock(
      (my_conv1): Sequential(
        (0): Conv3d(256, 256, kernel_size=(3, 3, 3), stride=(1, 1, 1), padding=(1, 1, 1))
        (1): BatchNorm3d(256, eps=1e-05, momentum=0.1, affine=True, track_running_stats=True)
        (2): ReLU()
      )
      (my_conv2): Sequential(
        (0): Conv3d(256, 256, kernel_size=(3, 3, 3), stride=(1, 1, 1), padding=(1, 1, 1))
        (1): BatchNorm3d(256, eps=1e-05, momentum=0.1, affine=True, track_running_stats=True)
        (2): ReLU()
      )
      (conv3): Sequential(
        (0): Conv3d(256, 256, kernel_size=(1, 1, 1), stride=(1, 1, 1))
        (1): BatchNorm3d(256, eps=1e-05, momentum=0.1, affine=True, track_running_stats=True)
        (2): ReLU()
      )
    )
    (12): ResidualBlock(
      (my_conv1): Sequential(
        (0): Conv3d(256, 256, kernel_size=(3, 3, 3), stride=(1, 1, 1), padding=(1, 1, 1))
        (1): BatchNorm3d(256, eps=1e-05, momentum=0.1, affine=True, track_running_stats=True)
        (2): ReLU()
      )
      (my_conv2): Sequential(
        (0): Conv3d(256, 256, kernel_size=(3, 3, 3), stride=(1, 1, 1), padding=(1, 1, 1))
        (1): BatchNorm3d(256, eps=1e-05, momentum=0.1, affine=True, track_running_stats=True)
        (2): ReLU()
      )
      (conv3): Sequential(
        (0): Conv3d(256, 256, kernel_size=(1, 1, 1), stride=(1, 1, 1))
        (1): BatchNorm3d(256, eps=1e-05, momentum=0.1, affine=True, track_running_stats=True)
        (2): ReLU()
      )
    )
    (13): ResidualBlock(
      (my_conv1): Sequential(
        (0): Conv3d(256, 256, kernel_size=(3, 3, 3), stride=(1, 1, 1), padding=(1, 1, 1))
        (1): BatchNorm3d(256, eps=1e-05, momentum=0.1, affine=True, track_running_stats=True)
        (2): ReLU()
      )
      (my_conv2): Sequential(
        (0): Conv3d(256, 256, kernel_size=(3, 3, 3), stride=(1, 1, 1), padding=(1, 1, 1))
        (1): BatchNorm3d(256, eps=1e-05, momentum=0.1, affine=True, track_running_stats=True)
        (2): ReLU()
      )
      (conv3): Sequential(
        (0): Conv3d(256, 256, kernel_size=(1, 1, 1), stride=(1, 1, 1))
        (1): BatchNorm3d(256, eps=1e-05, momentum=0.1, affine=True, track_running_stats=True)
        (2): ReLU()
      )
    )
    (14): ResidualBlock(
      (my_conv1): Sequential(
        (0): Conv3d(256, 512, kernel_size=(3, 3, 3), stride=(1, 1, 1), padding=(1, 1, 1))
        (1): BatchNorm3d(512, eps=1e-05, momentum=0.1, affine=True, track_running_stats=True)
        (2): ReLU()
      )
      (my_conv2): Sequential(
        (0): Conv3d(512, 512, kernel_size=(3, 3, 3), stride=(1, 1, 1), padding=(1, 1, 1))
        (1): BatchNorm3d(512, eps=1e-05, momentum=0.1, affine=True, track_running_stats=True)
        (2): ReLU()
      )
      (conv3): Sequential(
        (0): Conv3d(256, 512, kernel_size=(1, 1, 1), stride=(1, 1, 1))
        (1): BatchNorm3d(512, eps=1e-05, momentum=0.1, affine=True, track_running_stats=True)
        (2): ReLU()
      )
    )
    (15): ResCBAMLayer(
      (ch_AvgPool): AvgPool3d(kernel_size=4, stride=4, padding=0)
      (ch_MaxPool): MaxPool3d(kernel_size=4, stride=4, padding=0, dilation=1, ceil_mode=False)
      (ch_Linear1): Linear(in_features=512, out_features=128, bias=False)
      (ch_Linear2): Linear(in_features=128, out_features=512, bias=False)
      (ch_Softmax): Softmax(dim=1)
      (sp_Conv): Conv3d(2, 1, kernel_size=(3, 3, 3), stride=(1, 1, 1), padding=(1, 1, 1), bias=False)
      (sp_Softmax): Softmax(dim=1)
      (sp_sigmoid): Sigmoid()
    )
  )
  (avg_pooling): AvgPool3d(kernel_size=4, stride=4, padding=0)
  (fc): AngleLinear()
), 'acc': 73.91304347826087, 'tpr': 57.69230769230769, 'fpr': 5.0, 'epoch': 4, 'best_acc': 73.91304347826087}
INFO:root:
Epoch: 5
INFO:root:mean 178.83227827824444 std 50.05896544303765
…
